Model: "sequential"
_________________________________________________________________
Layer (type)                 Output Shape              Param #   
=================================================================
dense (Dense)                (None, 12800)             2572800   
_________________________________________________________________
leaky_re_lu (LeakyReLU)      (None, 12800)             0         
_________________________________________________________________
reshape (Reshape)            (None, 2, 50, 128)        0         
_________________________________________________________________
conv2d_transpose (Conv2DTran (None, 6, 100, 128)       393344    
_________________________________________________________________
leaky_re_lu_1 (LeakyReLU)    (None, 6, 100, 128)       0         
_________________________________________________________________
conv2d_transpose_1 (Conv2DTr (None, 6, 200, 128)       65664     
_________________________________________________________________
leaky_re_lu_2 (LeakyReLU)    (None, 6, 200, 128)       0         
_________________________________________________________________
conv2d (Conv2D)              (None, 6, 200, 1)         12801     
=================================================================
Total params: 3,044,609
Trainable params: 3,044,609
Non-trainable params: 0
_________________________________________________________________
Model: "sequential_1"
_________________________________________________________________
Layer (type)                 Output Shape              Param #   
=================================================================
conv2d_1 (Conv2D)            (None, 3, 100, 128)       1280      
_________________________________________________________________
leaky_re_lu_3 (LeakyReLU)    (None, 3, 100, 128)       0         
_________________________________________________________________
conv2d_2 (Conv2D)            (None, 2, 50, 128)        147584    
_________________________________________________________________
leaky_re_lu_4 (LeakyReLU)    (None, 2, 50, 128)        0         
_________________________________________________________________
flatten (Flatten)            (None, 12800)             0         
_________________________________________________________________
dropout (Dropout)            (None, 12800)             0         
_________________________________________________________________
dense_1 (Dense)              (None, 1)                 12801     
=================================================================
Total params: 161,665
Trainable params: 161,665
Non-trainable params: 0
_________________________________________________________________
Time for epoch 1 is 20.48588800430298 sec
Time for epoch 2 is 20.491963148117065 sec
Time for epoch 3 is 20.492716550827026 sec
Time for epoch 4 is 20.49006724357605 sec
Time for epoch 5 is 20.492263555526733 sec
…
