2.11.0
Model: "sequential"
_________________________________________________________________
 Layer (type)                Output Shape              Param #   
=================================================================
 dense (Dense)               (None, 12800)             2572800   
                                                                 
 leaky_re_lu (LeakyReLU)     (None, 12800)             0         
                                                                 
 reshape (Reshape)           (None, 2, 50, 128)        0         
                                                                 
 conv2d_transpose (Conv2DTra  (None, 6, 100, 128)      393344    
 nspose)                                                         
                                                                 
 leaky_re_lu_1 (LeakyReLU)   (None, 6, 100, 128)       0         
                                                                 
 conv2d_transpose_1 (Conv2DT  (None, 6, 200, 128)      65664     
 ranspose)                                                       
                                                                 
 leaky_re_lu_2 (LeakyReLU)   (None, 6, 200, 128)       0         
                                                                 
 conv2d (Conv2D)             (None, 6, 200, 1)         12801     
                                                                 
=================================================================
Total params: 3,044,609
Trainable params: 3,044,609
Non-trainable params: 0
_________________________________________________________________
Model: "sequential_1"
_________________________________________________________________
 Layer (type)                Output Shape              Param #   
=================================================================
 conv2d_1 (Conv2D)           (None, 3, 100, 128)       1280      
                                                                 
 leaky_re_lu_3 (LeakyReLU)   (None, 3, 100, 128)       0         
                                                                 
 conv2d_2 (Conv2D)           (None, 2, 50, 128)        147584    
                                                                 
 leaky_re_lu_4 (LeakyReLU)   (None, 2, 50, 128)        0         
                                                                 
 flatten (Flatten)           (None, 12800)             0         
                                                                 
 dropout (Dropout)           (None, 12800)             0         
                                                                 
 dense_1 (Dense)             (None, 1)                 12801     
                                                                 
=================================================================
Total params: 161,665
Trainable params: 161,665
Non-trainable params: 0
_________________________________________________________________
Eval: 0.0 | EvCrossEntropy: 15.424949 | RegCrossEntropy: 0.6932447 | CombCrossEntropy: 0.6932447 | alfa,beta: 0.0 , 1.0
Eval: 0.0 | EvCrossEntropy: 15.424949 | RegCrossEntropy: 0.6926818 | CombCrossEntropy: 0.6926818 | alfa,beta: 0.0 , 1.0
…
